#map = affine_map<(d0) -> (d0 floordiv 28)>
#map1 = affine_map<(d0) -> (d0 mod 28)>
module {
  func.func private @expf(f32) -> f32 attributes {llvm.readnone}
  func.func private @roundevenf(f32) -> f32 attributes {llvm.readnone}
  memref.global "private" constant @__constant_1x1x1x1xf32 : memref<1x1x1x1xf32> = dense<254.999985> {alignment = 64 : i64}
  memref.global "private" constant @__constant_64x784xi8 : memref<64x784xi8> = dense<"…"> {alignment = 64 : i64}
  memref.global "private" constant @__constant_64xi32 : memref<64xi32> = dense<[502, 10614, 5325, -6490, 21151, -22087, 2372, -4663, 15205, -1173, 10922, -20190, -9693, -4194, 17170, 13461, -234, -3918, -1248, -14293, -1716, 29387, 11255, 2146, -12425, 7824, 24574, 7621, 11568, 11772, 32440, -12530, 7067, 25998, 16931, 10560, 13891, -3903, -1782, 6061, 20264, 3606, -2355, -3627, 24450, -2787, -1132, 28245, -4451, -4843, 23756, 3265, 7305, 7638, -3167, -1958, -5565, 15708, 3594, 8226, 24602, 9428, 21051, 5265]> {alignment = 64 : i64}
  memref.global "private" constant @__constant_10x64xi8 : memref<10x64xi8> = dense<"…"> {alignment = 64 : i64}
  memref.global "private" constant @__constant_10xi32 : memref<10xi32> = dense<[194, -315, -53, 345, -858, 986, 405, 101, -342, -960]> {alignment = 64 : i64}
  memref.global "private" constant @__constant_1x1x1x1xi32 : memref<1x1x1x1xi32> = dense<-128> {alignment = 64 : i64}
  memref.global "private" constant @__constant_1x1xf32_3 : memref<1x1xf32> = dense<9.000000e+00> {alignment = 64 : i64}
  memref.global "private" constant @__constant_1x1xf32_2 : memref<1x1xf32> = dense<0.117296703> {alignment = 64 : i64}
  memref.global "private" constant @__constant_1x1xf32_1 : memref<1x1xf32> = dense<2.560000e+02> {alignment = 64 : i64}
  memref.global "private" constant @__constant_1x1xi32 : memref<1x1xi32> = dense<-128> {alignment = 64 : i64}
  memref.global "private" constant @__constant_1x1xf32_0 : memref<1x1xf32> = dense<-1.280000e+02> {alignment = 64 : i64}
  memref.global "private" constant @__constant_1x1xf32 : memref<1x1xf32> = dense<3.906250e-03> {alignment = 64 : i64}
  func.func @main(%arg0: memref<1x28x28x1xf32, strided<[?, ?, ?, ?], offset: ?>> {ml_program.identifier = "serving_default_keras_tensor"}) -> (memref<1x10xf32> {ml_program.identifier = "StatefulPartitionedCall_1"}) {
    %c10 = arith.constant 10 : index
    %c64 = arith.constant 64 : index
    %c784 = arith.constant 784 : index
    %c28 = arith.constant 28 : index
    %c1 = arith.constant 1 : index
    %c0 = arith.constant 0 : index
    %c274877906944_i64 = arith.constant 274877906944 : i64
    %c1089145654_i64 = arith.constant 1089145654 : i64
    %c4398046511104_i64 = arith.constant 4398046511104 : i64
    %c1852112935_i64 = arith.constant 1852112935 : i64
    %cst = arith.constant 1.000000e+00 : f32
    %cst_0 = arith.constant 0.000000e+00 : f32
    %cst_1 = arith.constant -3.40282347E+38 : f32
    %c9_i32 = arith.constant 9 : i32
    %c127_i32 = arith.constant 127 : i32
    %c-1073741824_i64 = arith.constant -1073741824 : i64
    %c1073741824_i64 = arith.constant 1073741824 : i64
    %c0_i32 = arith.constant 0 : i32
    %c-128_i32 = arith.constant -128 : i32
    %c2147483647_i32 = arith.constant 2147483647 : i32
    %cst_2 = arith.constant 2.14748365E+9 : f32
    %cst_3 = arith.constant -2.14748365E+9 : f32
    %0 = memref.get_global @__constant_1x1xf32 : memref<1x1xf32>
    %1 = memref.get_global @__constant_1x1xf32_0 : memref<1x1xf32>
    %2 = memref.get_global @__constant_1x1xi32 : memref<1x1xi32>
    %3 = memref.get_global @__constant_1x1xf32_1 : memref<1x1xf32>
    %4 = memref.get_global @__constant_1x1xf32_2 : memref<1x1xf32>
    %5 = memref.get_global @__constant_1x1xf32_3 : memref<1x1xf32>
    %6 = memref.get_global @__constant_1x1x1x1xi32 : memref<1x1x1x1xi32>
    %7 = memref.get_global @__constant_10xi32 : memref<10xi32>
    %8 = memref.get_global @__constant_10x64xi8 : memref<10x64xi8>
    %9 = memref.get_global @__constant_64xi32 : memref<64xi32>
    %10 = memref.get_global @__constant_64x784xi8 : memref<64x784xi8>
    %11 = memref.get_global @__constant_1x1x1x1xf32 : memref<1x1x1x1xf32>
    %alloc = memref.alloc() {alignment = 64 : i64} : memref<1x28x28x1xf32>
    emitc.for %arg1 = %c0 to %c1 step %c1 {
      emitc.for %arg2 = %c0 to %c28 step %c1 {
        emitc.for %arg3 = %c0 to %c28 step %c1 {
          emitc.for %arg4 = %c0 to %c1 step %c1 {
            %12 = memref.load %arg0[%c0, %arg2, %arg3, %c0] : memref<1x28x28x1xf32, strided<[?, ?, ?, ?], offset: ?>>
            %13 = memref.load %11[%c0, %c0, %c0, %c0] : memref<1x1x1x1xf32>
            %14 = arith.mulf %12, %13 : f32
            memref.store %14, %alloc[%arg1, %arg2, %arg3, %arg4] : memref<1x28x28x1xf32>
          }
        }
      }
    }
    %alloc_4 = memref.alloc() {alignment = 64 : i64} : memref<1x28x28x1xi32>
    %alloc_5 = memref.alloc() {alignment = 64 : i64} : memref<1x28x28x1xi32>
    emitc.for %arg1 = %c0 to %c1 step %c1 {
      emitc.for %arg2 = %c0 to %c28 step %c1 {
        emitc.for %arg3 = %c0 to %c28 step %c1 {
          emitc.for %arg4 = %c0 to %c1 step %c1 {
            %12 = memref.load %alloc[%c0, %arg2, %arg3, %c0] : memref<1x28x28x1xf32>
            %13 = func.call @roundevenf(%12) : (f32) -> f32
            %14 = arith.cmpf ugt, %13, %cst_3 : f32
            %15 = arith.select %14, %13, %cst_3 : f32
            %16 = arith.fptosi %15 : f32 to i32
            %17 = arith.cmpf uge, %13, %cst_2 : f32
            %18 = arith.select %17, %c2147483647_i32, %16 : i32
            memref.store %18, %alloc_5[%arg1, %arg2, %arg3, %arg4] : memref<1x28x28x1xi32>
          }
        }
      }
    }
    emitc.for %arg1 = %c0 to %c1 step %c1 {
      emitc.for %arg2 = %c0 to %c28 step %c1 {
        emitc.for %arg3 = %c0 to %c28 step %c1 {
          emitc.for %arg4 = %c0 to %c1 step %c1 {
            %12 = memref.load %alloc_5[%c0, %arg2, %arg3, %c0] : memref<1x28x28x1xi32>
            %13 = memref.load %6[%c0, %c0, %c0, %c0] : memref<1x1x1x1xi32>
            %14 = arith.addi %12, %13 : i32
            memref.store %14, %alloc_4[%arg1, %arg2, %arg3, %arg4] : memref<1x28x28x1xi32>
          }
        }
      }
    }
    %alloc_6 = memref.alloc() {alignment = 64 : i64} : memref<1x28x28x1xi8>
    emitc.for %arg1 = %c0 to %c1 step %c1 {
      emitc.for %arg2 = %c0 to %c28 step %c1 {
        emitc.for %arg3 = %c0 to %c28 step %c1 {
          emitc.for %arg4 = %c0 to %c1 step %c1 {
            %12 = memref.load %alloc_4[%c0, %arg2, %arg3, %c0] : memref<1x28x28x1xi32>
            %13 = arith.trunci %12 : i32 to i8
            memref.store %13, %alloc_6[%arg1, %arg2, %arg3, %arg4] : memref<1x28x28x1xi8>
          }
        }
      }
    }
    %alloc_7 = memref.alloc() {alignment = 64 : i64} : memref<784x64xi8>
    emitc.for %arg1 = %c0 to %c784 step %c1 {
      emitc.for %arg2 = %c0 to %c64 step %c1 {
        %12 = memref.load %10[%arg2, %arg1] : memref<64x784xi8>
        memref.store %12, %alloc_7[%arg1, %arg2] : memref<784x64xi8>
      }
    }
    %alloc_8 = memref.alloc() {alignment = 64 : i64} : memref<1x64xi32>
    emitc.for %arg1 = %c0 to %c1 step %c1 {
      emitc.for %arg2 = %c0 to %c64 step %c1 {
        %12 = memref.load %9[%arg2] : memref<64xi32>
        memref.store %12, %alloc_8[%arg1, %arg2] : memref<1x64xi32>
      }
    }
    emitc.for %arg1 = %c0 to %c1 step %c1 {
      emitc.for %arg2 = %c0 to %c64 step %c1 {
        emitc.for %arg3 = %c0 to %c784 step %c1 {
          %12 = affine.apply #map(%arg3)
          %13 = affine.apply #map1(%arg3)
          %14 = memref.load %alloc_6[%arg1, %12, %13, %c0] : memref<1x28x28x1xi8>
          %15 = memref.load %alloc_7[%arg3, %arg2] : memref<784x64xi8>
          %16 = memref.load %alloc_8[%arg1, %arg2] : memref<1x64xi32>
          %17 = arith.extsi %14 : i8 to i32
          %18 = arith.subi %17, %c-128_i32 : i32
          %19 = arith.extsi %15 : i8 to i32
          %20 = arith.muli %18, %19 : i32
          %21 = arith.addi %16, %20 : i32
          memref.store %21, %alloc_8[%arg1, %arg2] : memref<1x64xi32>
        }
      }
    }
    %alloc_9 = memref.alloc() {alignment = 64 : i64} : memref<1x64xi8>
    emitc.for %arg1 = %c0 to %c1 step %c1 {
      emitc.for %arg2 = %c0 to %c64 step %c1 {
        %12 = memref.load %alloc_8[%arg1, %arg2] : memref<1x64xi32>
        %13 = arith.extsi %12 : i32 to i64
        %14 = arith.muli %13, %c1852112935_i64 : i64
        %15 = arith.addi %14, %c4398046511104_i64 : i64
        %16 = arith.cmpi sge, %12, %c0_i32 : i32
        %17 = arith.select %16, %c1073741824_i64, %c-1073741824_i64 : i64
        %18 = arith.addi %17, %15 : i64
        %19 = arith.trunci %18 : i64 to i32
        %20 = arith.addi %19, %c-128_i32 : i32
        %21 = arith.cmpi sgt, %20, %c-128_i32 : i32
        %22 = arith.select %21, %20, %c-128_i32 : i32
        %23 = arith.cmpi slt, %22, %c127_i32 : i32
        %24 = arith.select %23, %22, %c127_i32 : i32
        %25 = arith.trunci %24 : i32 to i8
        memref.store %25, %alloc_9[%arg1, %arg2] : memref<1x64xi8>
      }
    }
    %alloc_10 = memref.alloc() {alignment = 64 : i64} : memref<64x10xi8>
    emitc.for %arg1 = %c0 to %c64 step %c1 {
      emitc.for %arg2 = %c0 to %c10 step %c1 {
        %12 = memref.load %8[%arg2, %arg1] : memref<10x64xi8>
        memref.store %12, %alloc_10[%arg1, %arg2] : memref<64x10xi8>
      }
    }
    %alloc_11 = memref.alloc() {alignment = 64 : i64} : memref<1x10xi32>
    emitc.for %arg1 = %c0 to %c1 step %c1 {
      emitc.for %arg2 = %c0 to %c10 step %c1 {
        %12 = memref.load %7[%arg2] : memref<10xi32>
        memref.store %12, %alloc_11[%arg1, %arg2] : memref<1x10xi32>
      }
    }
    emitc.for %arg1 = %c0 to %c1 step %c1 {
      emitc.for %arg2 = %c0 to %c10 step %c1 {
        emitc.for %arg3 = %c0 to %c64 step %c1 {
          %12 = memref.load %alloc_9[%arg1, %arg3] : memref<1x64xi8>
          %13 = memref.load %alloc_10[%arg3, %arg2] : memref<64x10xi8>
          %14 = memref.load %alloc_11[%arg1, %arg2] : memref<1x10xi32>
          %15 = arith.extsi %12 : i8 to i32
          %16 = arith.subi %15, %c-128_i32 : i32
          %17 = arith.extsi %13 : i8 to i32
          %18 = arith.muli %16, %17 : i32
          %19 = arith.addi %14, %18 : i32
          memref.store %19, %alloc_11[%arg1, %arg2] : memref<1x10xi32>
        }
      }
    }
    %alloc_12 = memref.alloc() {alignment = 64 : i64} : memref<1x10xi8>
    emitc.for %arg1 = %c0 to %c1 step %c1 {
      emitc.for %arg2 = %c0 to %c10 step %c1 {
        %12 = memref.load %alloc_11[%arg1, %arg2] : memref<1x10xi32>
        %13 = arith.extsi %12 : i32 to i64
        %14 = arith.muli %13, %c1089145654_i64 : i64
        %15 = arith.addi %14, %c274877906944_i64 : i64
        %16 = arith.cmpi sge, %12, %c0_i32 : i32
        %17 = arith.select %16, %c1073741824_i64, %c-1073741824_i64 : i64
        %18 = arith.addi %17, %15 : i64
        %19 = arith.trunci %18 : i64 to i32
        %20 = arith.addi %19, %c9_i32 : i32
        %21 = arith.cmpi sgt, %20, %c-128_i32 : i32
        %22 = arith.select %21, %20, %c-128_i32 : i32
        %23 = arith.cmpi slt, %22, %c127_i32 : i32
        %24 = arith.select %23, %22, %c127_i32 : i32
        %25 = arith.trunci %24 : i32 to i8
        memref.store %25, %alloc_12[%arg1, %arg2] : memref<1x10xi8>
      }
    }
    %alloc_13 = memref.alloc() {alignment = 64 : i64} : memref<1x10xf32>
    emitc.for %arg1 = %c0 to %c1 step %c1 {
      emitc.for %arg2 = %c0 to %c10 step %c1 {
        %12 = memref.load %alloc_12[%c0, %arg2] : memref<1x10xi8>
        %13 = arith.sitofp %12 : i8 to f32
        memref.store %13, %alloc_13[%arg1, %arg2] : memref<1x10xf32>
      }
    }
    %alloc_14 = memref.alloc() {alignment = 64 : i64} : memref<1x10xf32>
    emitc.for %arg1 = %c0 to %c1 step %c1 {
      emitc.for %arg2 = %c0 to %c10 step %c1 {
        %12 = memref.load %alloc_13[%c0, %arg2] : memref<1x10xf32>
        %13 = memref.load %5[%c0, %c0] : memref<1x1xf32>
        %14 = arith.subf %12, %13 : f32
        memref.store %14, %alloc_14[%arg1, %arg2] : memref<1x10xf32>
      }
    }
    emitc.for %arg1 = %c0 to %c1 step %c1 {
      emitc.for %arg2 = %c0 to %c10 step %c1 {
        %12 = memref.load %alloc_14[%c0, %arg2] : memref<1x10xf32>
        %13 = memref.load %4[%c0, %c0] : memref<1x1xf32>
        %14 = arith.mulf %12, %13 : f32
        memref.store %14, %alloc_13[%arg1, %arg2] : memref<1x10xf32>
      }
    }
    %alloc_15 = memref.alloc() {alignment = 64 : i64} : memref<1xf32>
    emitc.for %arg1 = %c0 to %c1 step %c1 {
      memref.store %cst_1, %alloc_15[%arg1] : memref<1xf32>
    }
    emitc.for %arg1 = %c0 to %c1 step %c1 {
      emitc.for %arg2 = %c0 to %c10 step %c1 {
        %12 = memref.load %alloc_13[%arg1, %arg2] : memref<1x10xf32>
        %13 = memref.load %alloc_15[%arg1] : memref<1xf32>
        %14 = arith.cmpf ugt, %12, %13 : f32
        %15 = arith.select %14, %12, %13 : f32
        %16 = arith.cmpf uno, %13, %13 : f32
        %17 = arith.select %16, %13, %15 : f32
        memref.store %17, %alloc_15[%arg1] : memref<1xf32>
      }
    }
    %alloc_16 = memref.alloc() {alignment = 64 : i64} : memref<1x10xf32>
    emitc.for %arg1 = %c0 to %c1 step %c1 {
      emitc.for %arg2 = %c0 to %c10 step %c1 {
        %12 = memref.load %alloc_13[%c0, %arg2] : memref<1x10xf32>
        %13 = memref.load %alloc_15[%c0] : memref<1xf32>
        %14 = arith.subf %12, %13 : f32
        memref.store %14, %alloc_16[%arg1, %arg2] : memref<1x10xf32>
      }
    }
    emitc.for %arg1 = %c0 to %c1 step %c1 {
      emitc.for %arg2 = %c0 to %c10 step %c1 {
        %12 = memref.load %alloc_16[%c0, %arg2] : memref<1x10xf32>
        %13 = func.call @expf(%12) : (f32) -> f32
        memref.store %13, %alloc_13[%arg1, %arg2] : memref<1x10xf32>
      }
    }
    emitc.for %arg1 = %c0 to %c1 step %c1 {
      memref.store %cst_0, %alloc_15[%arg1] : memref<1xf32>
    }
    emitc.for %arg1 = %c0 to %c1 step %c1 {
      emitc.for %arg2 = %c0 to %c10 step %c1 {
        %12 = memref.load %alloc_13[%arg1, %arg2] : memref<1x10xf32>
        %13 = memref.load %alloc_15[%arg1] : memref<1xf32>
        %14 = arith.addf %12, %13 : f32
        memref.store %14, %alloc_15[%arg1] : memref<1xf32>
      }
    }
    %alloc_17 = memref.alloc() {alignment = 64 : i64} : memref<1x1xf32>
    emitc.for %arg1 = %c0 to %c1 step %c1 {
      emitc.for %arg2 = %c0 to %c1 step %c1 {
        %12 = memref.load %alloc_15[%c0] : memref<1xf32>
        %13 = arith.divf %cst, %12 : f32
        memref.store %13, %alloc_17[%arg1, %arg2] : memref<1x1xf32>
      }
    }
    %alloc_18 = memref.alloc() {alignment = 64 : i64} : memref<1x10xf32>
    emitc.for %arg1 = %c0 to %c1 step %c1 {
      emitc.for %arg2 = %c0 to %c10 step %c1 {
        %12 = memref.load %alloc_13[%c0, %arg2] : memref<1x10xf32>
        %13 = memref.load %alloc_17[%c0, %c0] : memref<1x1xf32>
        %14 = arith.mulf %12, %13 : f32
        memref.store %14, %alloc_18[%arg1, %arg2] : memref<1x10xf32>
      }
    }
    emitc.for %arg1 = %c0 to %c1 step %c1 {
      emitc.for %arg2 = %c0 to %c10 step %c1 {
        %12 = memref.load %alloc_18[%c0, %arg2] : memref<1x10xf32>
        %13 = memref.load %3[%c0, %c0] : memref<1x1xf32>
        %14 = arith.mulf %12, %13 : f32
        memref.store %14, %alloc_13[%arg1, %arg2] : memref<1x10xf32>
      }
    }
    %alloc_19 = memref.alloc() {alignment = 64 : i64} : memref<1x10xi32>
    emitc.for %arg1 = %c0 to %c1 step %c1 {
      emitc.for %arg2 = %c0 to %c10 step %c1 {
        %12 = memref.load %alloc_13[%c0, %arg2] : memref<1x10xf32>
        %13 = func.call @roundevenf(%12) : (f32) -> f32
        %14 = arith.cmpf ugt, %13, %cst_3 : f32
        %15 = arith.select %14, %13, %cst_3 : f32
        %16 = arith.fptosi %15 : f32 to i32
        %17 = arith.cmpf uge, %13, %cst_2 : f32
        %18 = arith.select %17, %c2147483647_i32, %16 : i32
        memref.store %18, %alloc_19[%arg1, %arg2] : memref<1x10xi32>
      }
    }
    emitc.for %arg1 = %c0 to %c1 step %c1 {
      emitc.for %arg2 = %c0 to %c10 step %c1 {
        %12 = memref.load %alloc_19[%c0, %arg2] : memref<1x10xi32>
        %13 = memref.load %2[%c0, %c0] : memref<1x1xi32>
        %14 = arith.addi %12, %13 : i32
        memref.store %14, %alloc_11[%arg1, %arg2] : memref<1x10xi32>
      }
    }
    emitc.for %arg1 = %c0 to %c1 step %c1 {
      emitc.for %arg2 = %c0 to %c10 step %c1 {
        %12 = memref.load %alloc_11[%c0, %arg2] : memref<1x10xi32>
        %13 = arith.trunci %12 : i32 to i8
        memref.store %13, %alloc_12[%arg1, %arg2] : memref<1x10xi8>
      }
    }
    emitc.for %arg1 = %c0 to %c1 step %c1 {
      emitc.for %arg2 = %c0 to %c10 step %c1 {
        %12 = memref.load %alloc_12[%c0, %arg2] : memref<1x10xi8>
        %13 = arith.sitofp %12 : i8 to f32
        memref.store %13, %alloc_13[%arg1, %arg2] : memref<1x10xf32>
      }
    }
    %alloc_20 = memref.alloc() {alignment = 64 : i64} : memref<1x10xf32>
    emitc.for %arg1 = %c0 to %c1 step %c1 {
      emitc.for %arg2 = %c0 to %c10 step %c1 {
        %12 = memref.load %alloc_13[%c0, %arg2] : memref<1x10xf32>
        %13 = memref.load %1[%c0, %c0] : memref<1x1xf32>
        %14 = arith.subf %12, %13 : f32
        memref.store %14, %alloc_20[%arg1, %arg2] : memref<1x10xf32>
      }
    }
    emitc.for %arg1 = %c0 to %c1 step %c1 {
      emitc.for %arg2 = %c0 to %c10 step %c1 {
        %12 = memref.load %alloc_20[%c0, %arg2] : memref<1x10xf32>
        %13 = memref.load %0[%c0, %c0] : memref<1x1xf32>
        %14 = arith.mulf %12, %13 : f32
        memref.store %14, %alloc_13[%arg1, %arg2] : memref<1x10xf32>
      }
    }
    return %alloc_13 : memref<1x10xf32>
  }
}

